…
Test Epoch: 4 -  Batch Number: 97 - Batch Loss: 1.0704063177108765 - Batch precision value: 67.37  
Test Epoch: 4 -  Batch Number: 98 - Batch Loss: 0.9190791249275208 - Batch precision value: 68.06  
Test Epoch: 4 -  Batch Number: 99 - Batch Loss: 1.0028430223464966 - Batch precision value: 68.7  
Saving..
Average Test Loss: 0.5459400000000001 - Average Precision value: 1.2727022683620455
----------------------------------------------------------------
        Layer (type)               Output Shape         Param #
================================================================
            Conv2d-1           [-1, 64, 32, 32]           1,728
            Conv2d-2           [-1, 64, 32, 32]          36,864
            Conv2d-3           [-1, 64, 32, 32]          36,864
        BasicBlock-4           [-1, 64, 32, 32]               0
            Conv2d-5           [-1, 64, 32, 32]          36,864
            Conv2d-6           [-1, 64, 32, 32]          36,864
        BasicBlock-7           [-1, 64, 32, 32]               0
            Conv2d-8          [-1, 128, 16, 16]          73,728
            Conv2d-9          [-1, 128, 16, 16]         147,456
           Conv2d-10          [-1, 128, 16, 16]           8,192
       BasicBlock-11          [-1, 128, 16, 16]               0
           Conv2d-12          [-1, 128, 16, 16]         147,456
           Conv2d-13          [-1, 128, 16, 16]         147,456
       BasicBlock-14          [-1, 128, 16, 16]               0
           Conv2d-15            [-1, 256, 8, 8]         294,912
           Conv2d-16            [-1, 256, 8, 8]         589,824
           Conv2d-17            [-1, 256, 8, 8]          32,768
       BasicBlock-18            [-1, 256, 8, 8]               0
           Conv2d-19            [-1, 256, 8, 8]         589,824
           Conv2d-20            [-1, 256, 8, 8]         589,824
       BasicBlock-21            [-1, 256, 8, 8]               0
           Conv2d-22            [-1, 512, 4, 4]       1,179,648
           Conv2d-23            [-1, 512, 4, 4]       2,359,296
           Conv2d-24            [-1, 512, 4, 4]         131,072
       BasicBlock-25            [-1, 512, 4, 4]               0
           Conv2d-26            [-1, 512, 4, 4]       2,359,296
           Conv2d-27            [-1, 512, 4, 4]       2,359,296
       BasicBlock-28            [-1, 512, 4, 4]               0
           Linear-29                   [-1, 10]           5,130
           ResNet-30                   [-1, 10]               0
================================================================
Total params: 11,164,362
Trainable params: 11,164,362
Non-trainable params: 0
----------------------------------------------------------------
Input size (MB): 0.01
Forward/backward pass size (MB): 6.56
Params size (MB): 42.59
Estimated Total Size (MB): 49.16
----------------------------------------------------------------
