…
Total Epochs time: 175.14715442433953 - Average all Epochs Time: 35.02943088486791 - All Epoch Data Loading Time: 18.587357066571712 - Average all Epochs Data Loading Time: 3.7174714133143425 - All Epoch Computation Time: 53.798512337729335 - Average all Epochs Total Computation Time: 10.759702467545868 - All Epoch Loss: 5.887394227030333 - Average all Epochs Loss: 1.1774788454060665 - All Epoch Precision Value: 2.873501438618926 - Average all Epochs PrecisionValue: 0.5747002877237852
**************************************************
----------------------------------------------------------------
        Layer (type)               Output Shape         Param #
================================================================
            Conv2d-1           [-1, 64, 32, 32]           1,728
       BatchNorm2d-2           [-1, 64, 32, 32]             128
            Conv2d-3           [-1, 64, 32, 32]          36,864
       BatchNorm2d-4           [-1, 64, 32, 32]             128
            Conv2d-5           [-1, 64, 32, 32]          36,864
       BatchNorm2d-6           [-1, 64, 32, 32]             128
        BasicBlock-7           [-1, 64, 32, 32]               0
            Conv2d-8           [-1, 64, 32, 32]          36,864
       BatchNorm2d-9           [-1, 64, 32, 32]             128
           Conv2d-10           [-1, 64, 32, 32]          36,864
      BatchNorm2d-11           [-1, 64, 32, 32]             128
       BasicBlock-12           [-1, 64, 32, 32]               0
           Conv2d-13          [-1, 128, 16, 16]          73,728
      BatchNorm2d-14          [-1, 128, 16, 16]             256
           Conv2d-15          [-1, 128, 16, 16]         147,456
      BatchNorm2d-16          [-1, 128, 16, 16]             256
           Conv2d-17          [-1, 128, 16, 16]           8,192
      BatchNorm2d-18          [-1, 128, 16, 16]             256
       BasicBlock-19          [-1, 128, 16, 16]               0
           Conv2d-20          [-1, 128, 16, 16]         147,456
      BatchNorm2d-21          [-1, 128, 16, 16]             256
           Conv2d-22          [-1, 128, 16, 16]         147,456
      BatchNorm2d-23          [-1, 128, 16, 16]             256
       BasicBlock-24          [-1, 128, 16, 16]               0
           Conv2d-25            [-1, 256, 8, 8]         294,912
      BatchNorm2d-26            [-1, 256, 8, 8]             512
           Conv2d-27            [-1, 256, 8, 8]         589,824
      BatchNorm2d-28            [-1, 256, 8, 8]             512
           Conv2d-29            [-1, 256, 8, 8]          32,768
      BatchNorm2d-30            [-1, 256, 8, 8]             512
       BasicBlock-31            [-1, 256, 8, 8]               0
           Conv2d-32            [-1, 256, 8, 8]         589,824
      BatchNorm2d-33            [-1, 256, 8, 8]             512
           Conv2d-34            [-1, 256, 8, 8]         589,824
      BatchNorm2d-35            [-1, 256, 8, 8]             512
       BasicBlock-36            [-1, 256, 8, 8]               0
           Conv2d-37            [-1, 512, 4, 4]       1,179,648
      BatchNorm2d-38            [-1, 512, 4, 4]           1,024
           Conv2d-39            [-1, 512, 4, 4]       2,359,296
      BatchNorm2d-40            [-1, 512, 4, 4]           1,024
           Conv2d-41            [-1, 512, 4, 4]         131,072
      BatchNorm2d-42            [-1, 512, 4, 4]           1,024
       BasicBlock-43            [-1, 512, 4, 4]               0
           Conv2d-44            [-1, 512, 4, 4]       2,359,296
      BatchNorm2d-45            [-1, 512, 4, 4]           1,024
           Conv2d-46            [-1, 512, 4, 4]       2,359,296
      BatchNorm2d-47            [-1, 512, 4, 4]           1,024
       BasicBlock-48            [-1, 512, 4, 4]               0
           Linear-49                   [-1, 10]           5,130
           ResNet-50                   [-1, 10]               0
================================================================
Total params: 11,173,962
Trainable params: 11,173,962
Non-trainable params: 0
----------------------------------------------------------------
Input size (MB): 0.01
Forward/backward pass size (MB): 11.25
Params size (MB): 42.63
Estimated Total Size (MB): 53.89
----------------------------------------------------------------
