…
Total Epochs time: 152.25370837934315 - Average all Epochs Time: 30.45074167586863 - All Epoch Data Loading Time: 5.146178588271141 - Average all Epochs Data Loading Time: 1.0292357176542282 - All Epoch Computation Time: 67.23855033144355 - Average all Epochs Total Computation Time: 13.44771006628871 - All Epoch Loss: 5.155309914170628 - Average all Epochs Loss: 1.0310619828341256 - All Epoch Precision Value: 3.1523737212276215 - Average all Epochs PrecisionValue: 0.6304747442455243
**************************************************
----------------------------------------------------------------
        Layer (type)               Output Shape         Param #
================================================================
            Conv2d-1           [-1, 64, 32, 32]           1,728
            Conv2d-2           [-1, 64, 32, 32]          36,864
            Conv2d-3           [-1, 64, 32, 32]          36,864
        BasicBlock-4           [-1, 64, 32, 32]               0
            Conv2d-5           [-1, 64, 32, 32]          36,864
            Conv2d-6           [-1, 64, 32, 32]          36,864
        BasicBlock-7           [-1, 64, 32, 32]               0
            Conv2d-8          [-1, 128, 16, 16]          73,728
            Conv2d-9          [-1, 128, 16, 16]         147,456
           Conv2d-10          [-1, 128, 16, 16]           8,192
      BatchNorm2d-11          [-1, 128, 16, 16]             256
       BasicBlock-12          [-1, 128, 16, 16]               0
           Conv2d-13          [-1, 128, 16, 16]         147,456
           Conv2d-14          [-1, 128, 16, 16]         147,456
       BasicBlock-15          [-1, 128, 16, 16]               0
           Conv2d-16            [-1, 256, 8, 8]         294,912
           Conv2d-17            [-1, 256, 8, 8]         589,824
           Conv2d-18            [-1, 256, 8, 8]          32,768
      BatchNorm2d-19            [-1, 256, 8, 8]             512
       BasicBlock-20            [-1, 256, 8, 8]               0
           Conv2d-21            [-1, 256, 8, 8]         589,824
           Conv2d-22            [-1, 256, 8, 8]         589,824
       BasicBlock-23            [-1, 256, 8, 8]               0
           Conv2d-24            [-1, 512, 4, 4]       1,179,648
           Conv2d-25            [-1, 512, 4, 4]       2,359,296
           Conv2d-26            [-1, 512, 4, 4]         131,072
      BatchNorm2d-27            [-1, 512, 4, 4]           1,024
       BasicBlock-28            [-1, 512, 4, 4]               0
           Conv2d-29            [-1, 512, 4, 4]       2,359,296
           Conv2d-30            [-1, 512, 4, 4]       2,359,296
       BasicBlock-31            [-1, 512, 4, 4]               0
           Linear-32                   [-1, 10]           5,130
           ResNet-33                   [-1, 10]               0
================================================================
Total params: 11,166,154
Trainable params: 11,166,154
Non-trainable params: 0
----------------------------------------------------------------
Input size (MB): 0.01
Forward/backward pass size (MB): 7.00
Params size (MB): 42.60
Estimated Total Size (MB): 49.61
----------------------------------------------------------------
